drone_audio_model.tflite (tflite, 412208 bytes, 15 tensors)

arith.constant f4 [64]
000000 d2 20 d9 3d b9 fa c2 3d c8 5e 37 3d aa f7 38 3d
       0.10601963 0.09520478 0.044768125 0.045158066
000010 78 62 af 3c b7 95 4c 3d 0f 04 a4 3d ad b9 a6 3c
       0.021409258 0.049947467 0.080085866 0.020352209
000020 aa 97 47 3d e7 05 74 3d 4c 41 77 3c 6b 66 79 3d
       0.048728622 0.05957594 0.015091252 0.06088869
000030 71 0e bb 3d a3 f8 9b 3d 09 68 42 3b 06 80 5c 3d
       0.09133614 0.07615783 0.002966406 0.05383303
000040 d4 75 a1 3d 14 7e 82 3d 45 bd a5 3d 97 68 67 3d
       0.07883802 0.06371704 0.08092741 0.05649623
000050 8f 96 09 3e 4e 10 5e 3d fa aa cc 3c df f0 b3 3c
       0.1343634 0.054214768 0.024983872 0.021965442
000060 b9 8d 7d 3d 4c 92 c1 3b c9 1b 86 3d e3 63 a7 3d
       0.061902735 0.0059073325 0.06548268 0.08173349
000070 01 0a 4e 3d c6 4d 17 3d cb c6 08 3d 4e fd 41 3d
       0.05030251 0.036939405 0.03339271 0.04736071
000080 ad 71 71 3d 2f e6 6a 3d 42 3b aa 3d 92 43 81 3d
       0.0589463 0.057348426 0.08312084 0.06311716
000090 08 fe 85 3d 51 38 e0 3c 69 6f 79 3c 79 9c c0 3d
       0.06542593 0.027370604 0.015224316 0.09404845
0000a0 de 58 9a 3d 5f 44 81 3d f7 66 ea 3c 43 3b 00 3d
       0.07536481 0.06311869 0.02861355 0.031306516
0000b0 1f f5 d3 3d f6 dc 4e 3b f1 fd 5c 3d 1d ab a7 3d
       0.103494875 0.0031564808 0.053953115 0.08186934
0000c0 c4 e6 de 3d db 34 b0 3d b3 ab 00 3d 7d dd 9e 3d
       0.10883859 0.086038314 0.031413745 0.07757089
0000d0 b3 78 b8 3d eb 61 87 3d a4 40 d7 3d 21 8b 17 3d
       0.090073965 0.06610473 0.10510376 0.036997918
0000e0 f9 41 92 3d 1b e6 3f 3d af 1d b0 3d e9 40 02 3e
       0.071414895 0.046850305 0.08599412 0.12720074
0000f0 5f c2 ea 3d 72 06 f7 3d 2f 0c 56 3d ab 4c 3e 3d
       0.114628546 0.12061776 0.052257713 0.046459835

arith.constant1 f4 [128]
000000 4f 57 7f bd 3a 13 a7 bc fc f9 95 bd c2 0b 92 bc
       -0.062339123 -0.02039491 -0.07323071 -0.017827872
000010 80 53 6d bc 64 0c 6b bd 65 3f 7d bb 6b c0 3d 3c
       -0.01448524 -0.057384863 -0.0038642522 0.011581521
000020 9b 42 34 bd a2 ca ad bc 32 71 7f bd d0 16 87 bd
       -0.044008832 -0.021214787 -0.06236381 -0.06596148
000030 1e d2 77 bd 9c cb 85 bd 18 c3 58 bd 31 56 ff bc
       -0.060503118 -0.06532976 -0.05292043 -0.031169029
000040 b8 18 8f bd 03 40 bb bd 76 65 3e bd f1 8c a2 bb
       -0.069871366 -0.09143069 -0.04648348 -0.004960649
000050 cf db d5 bc b1 6a e7 bc f8 73 f9 bc 8b ac 08 bd
       -0.02610579 -0.028249117 -0.030450806 -0.033367675
000060 67 7f 8e bd dd a0 ac bd 8f ed 66 3b 3f 10 4e bd
       -0.06957894 -0.0842912 0.003523681 -0.050308462
000070 5d 26 90 bd f4 dc 25 bd 6a fa 49 bc f1 ae 50 bb
       -0.07038567 -0.04049392 -0.01232777 -0.0031842554
000080 68 50 be bd cc d2 86 bc ff 6a fc bb a1 9c 55 bd
       -0.0929268 -0.016457938 -0.0077031846 -0.052151326
000090 66 0e fe bc 9a d8 b2 bd fa 2b 84 bd df 29 22 bd
       -0.031012725 -0.0873272 -0.064537 -0.039590713
0000a0 4a 01 42 bc 1d ed 62 bd c6 28 f2 bc 81 20 36 bd
       -0.011841128 -0.05540191 -0.029560458 -0.044464592
0000b0 40 2b b7 bd 70 ed 12 bc f2 ba 83 bc 70 b3 18 bd
       -0.08943796 -0.008967742 -0.016080353 -0.0372805
0000c0 f8 a4 34 bd da cb b2 3c d8 51 31 bd 25 84 e4 bd
       -0.04410264 0.02182572 -0.043290943 -0.11158017
0000d0 10 a8 cb bd 2b 56 10 bd 57 71 1e bc 4a aa 4c bd
       -0.09944165 -0.035238426 -0.009670577 -0.049967088
0000e0 ab d9 fb 3b 9f b9 92 bc 65 80 b6 bb 17 3e 12 bd
       0.00768586 -0.017910777 -0.005569505 -0.035703745
0000f0 d7 97 41 bc e0 68 df bd d3 74 b8 bb 28 7d ef bc
       -0.011815987 -0.10908675 -0.005629161 -0.029234484
000100 67 60 17 bd 28 1c 9d bd e2 8e 58 bc 97 35 d2 bb
       -0.03695717 -0.07671386 -0.01321766 -0.00641508
000110 77 7a 32 3b 03 19 a4 bb ae ce 47 bd cb 9d 73 3c
       0.002723364 -0.0050078644 -0.04878109 0.014869164
000120 73 85 06 bd e2 25 06 bd e5 92 2c 3c 9a 07 39 ba
       -0.03284211 -0.03275097 0.010533069 -0.00070583227
000130 9d 2c 18 bd a4 34 df bc 2d 4c ec bc 07 7f 91 bd
       -0.03715192 -0.02724678 -0.028844917 -0.07104307
000140 ad 8c 55 bd 7e 59 f5 bc 2e f5 28 3d ed 71 3c bd
       -0.052136112 -0.0299499 0.041249447 -0.046007086
000150 47 da 66 bb a7 83 0f 3c 4c e8 84 bd 01 76 b1 3b
       -0.0035225318 0.008759416 -0.064896196 0.0054156785
000160 36 9d 01 3d b1 21 ab bc 48 70 d9 bb 36 d2 f1 bb
       0.03164407 -0.020890089 -0.0066356994 -0.0073797954
000170 15 45 ee bc 9c 0c cf bc 99 82 a4 bd 2d f0 01 bb
       -0.029085675 -0.025274567 -0.08032722 -0.0019826994
000180 16 3b 75 3b c9 44 d8 bd fb 1c 91 bd d4 01 b2 bd
       0.0037419251 -0.10559995 -0.07085606 -0.08691755
000190 db 4a ae bc 14 3b 3d ba 5c 13 07 bd b8 e7 0d bd
       -0.021275928 -0.0007218581 -0.032977447 -0.034644812
0001a0 16 c4 d4 bc 35 11 b5 3c 59 e0 5c bd 95 b4 ed bc
       -0.025972407 0.022102932 -0.053924892 -0.029016772
0001b0 68 0b 13 3d dc 7e 76 3c d4 f4 aa bd 0c a2 e8 bd
       0.03589955 0.015044894 -0.083474785 -0.11359033
0001c0 f2 d1 ba bc 5c ea 60 bd ab 6a 32 3d e4 5c 4a bd
       -0.022805188 -0.054911003 0.043558758 -0.049404994
0001d0 8b f1 6e bd e2 14 90 3c e3 fe b8 bd 51 45 49 bd
       -0.058335822 0.017588083 -0.09032991 -0.04913837
0001e0 80 b7 e3 bb 3d 45 50 bd 37 ff 83 bd 41 22 f9 bd
       -0.006949365 -0.05084728 -0.06445163 -0.121647365
0001f0 51 52 dc bd 2e 9f 7a bd 66 13 56 bd d4 44 7e bd
       -0.10757888 -0.06118696 -0.052264594 -0.06207736

arith.constant2 f4 [64]
000000 5c a5 be bd 43 f0 fb bd af 15 18 3e 2a c7 62 be
       -0.093088835 -0.12301686 0.14852022 -0.22146288
000010 96 09 fb bd 5b 11 4e bd 2b 40 d1 bd 83 73 1f bd
       -0.12257688 -0.05030952 -0.10217317 -0.03892852
000020 68 01 87 bd 01 f9 02 be 13 03 68 bd 85 80 1a bd
       -0.06592065 -0.127903 -0.056643557 -0.037720222
000030 f6 c1 8e bd 46 3e 50 bb 75 a2 1d bc 46 9b 28 be
       -0.06970589 -0.00317754 -0.009621252 -0.16465482
000040 55 e3 c7 bd 73 dc 63 bd 1b 4c fd bd 21 32 a2 bd
       -0.09760157 -0.05563016 -0.123680316 -0.079197176
000050 3e 9f 15 bd 3b 8b ab 3c 86 02 40 bd e1 d6 e9 bd
       -0.03652882 0.020940414 -0.046877407 -0.11417938
000060 87 b5 c8 bd 42 73 cf bc de 77 0b bd 1d 41 63 bb
       -0.098002486 -0.025323514 -0.03404986 -0.0034676262
000070 d9 8b 2c bd 2d 8d 0a be ee e3 41 bd 9a a4 30 bd
       -0.042125557 -0.13530417 -0.04733651 -0.043125726
000080 b5 e9 93 bd d3 40 37 3c f5 8f 9e bd c0 a4 4d bd
       -0.072223105 0.011184889 -0.077423014 -0.050205946
000090 93 d5 1a bd 78 c7 57 bd 3c 81 95 3b 59 60 25 bd
       -0.037801336 -0.052680463 0.004562525 -0.040375087
0000a0 37 e2 24 be 05 b2 b8 bd 53 a1 a0 bd 38 7f a9 bd
       -0.16101919 -0.090183295 -0.0784327 -0.08276218
0000b0 a9 fa 43 bd 69 a3 3a bd 9d 4d 06 be 35 10 90 bc
       -0.04784647 -0.045565996 -0.13115545 -0.017585853
0000c0 cd c3 9b 3a 94 4b e7 bd 34 a5 9a bd e4 77 34 be
       0.0011883915 -0.11293712 -0.07551041 -0.1762386
0000d0 71 bc 0c bd 88 8e af bd 22 4d 37 bd d9 28 64 bd
       -0.0343594 -0.085721076 -0.044751294 -0.055703018
0000e0 e4 56 ce 3b 90 16 7e bd c1 0c e3 bb 86 88 d1 bd
       0.0062969793 -0.062033236 -0.0069290106 -0.10231118
0000f0 56 27 77 bd 35 68 d8 bd c3 5b 4a be c3 c5 23 3b
       -0.060340248 -0.10566751 -0.19761567 0.0024989701

arith.constant3 f4 [32]
000000 57 67 08 bc 82 08 4f bd 2c 24 8c 3c 55 70 45 bc
       -0.008325419 -0.050545223 0.017107092 -0.012050708
000010 1a 0f 07 bd 5c 32 b6 bb c4 e6 84 3c 21 5e bf 3c
       -0.032973386 -0.0055602025 0.016223319 0.023360314
000020 80 f0 3c bd 08 64 31 bd b1 ea 13 bc ba ca 9d ba
       -0.046127796 -0.043308288 -0.009028123 -0.0012038567
000030 1b 04 73 bb 3d f2 f6 bb f9 7d 86 bd fb 59 bc bc
       -0.0037081304 -0.0075362013 -0.06566996 -0.022992125
000040 66 77 1e bd 9e 20 03 bc ff fb 8d bc 67 69 62 3b
       -0.038688086 -0.008003382 -0.017332075 0.0034547688
000050 74 81 4c bd 56 2a 5b bd 90 da 8c bd 33 c7 ff bb
       -0.049928144 -0.05350717 -0.06877625 -0.007805729
000060 03 61 84 3d 18 80 08 bc a9 5a 12 3c 07 cc f1 3c
       0.06463816 -0.008331321 0.008932748 0.029516233
000070 c5 45 c0 bc 57 c1 14 3b 83 75 52 bc 7d 19 ae bd
       -0.023470769 0.0022698247 -0.0128454 -0.08500955

arith.constant5 f4 [128, 3, 3, 64]
000000 ef d5 6d 3c 8c 65 36 bc 40 3e f9 bc 38 79 4b bb
       0.014516338 -0.011132609 -0.03042519 -0.0031047594
000010 37 99 06 3d de fe a6 3c 99 5f 08 3d 3e 7b 47 bd
       0.03286096 0.020385202 0.033294294 -0.048701517
000020 a8 05 e7 3c 6a de 14 bd c6 e0 9d bd d8 c0 9a bd
       0.02820094 -0.036344923 -0.07708888 -0.07556313
000030 0e ad b6 3b 8f 0c 55 3b a9 de a4 bd 14 01 fd bc
       0.005574829 0.0032508706 -0.080502816 -0.030884303
000040 ea 20 f7 3a 28 96 74 3c 85 31 1e bc 84 52 bd 3d
       0.0018854414 0.014928378 -0.009655361 0.09244254
000050 a3 c5 54 3d 17 e8 9b 3c 47 0f 69 3c 7b cd 83 bc
       0.051946294 0.019031567 0.014224834 -0.016089192
000060 f5 08 9c bd 1c 3d 12 3d 77 00 0c bd e5 a8 b9 bc
       -0.07618896 0.03570281 -0.03418013 -0.022663543
000070 87 a4 e2 bc e6 d8 a3 bc f3 eb 86 bb 9a 52 43 bc
       -0.027666343 -0.020000886 -0.004117483 -0.011921549
000080 38 f7 2d bd 64 d8 16 3d 77 84 21 bc b0 06 ca 3c
       -0.042472094 0.03682746 -0.009858242 0.024661392
000090 f4 49 bf 3d cf 52 cf 3b d9 14 a2 3c ff 57 55 3d
       0.09340277 0.00632701 0.019785332 0.052085873
0000a0 ef ab 88 bd 5f 1e c3 bd 10 ad c9 3b b1 c4 48 bd
       -0.06673419 -0.09527277 0.006154664 -0.049015705
0000b0 f7 d6 79 ba 22 66 17 bd a6 58 4c 3d fa 2d ef bc
       -0.00095306284 -0.036962636 0.04988923 -0.029196728
0000c0 47 4d c8 3c 32 df bc bc ef e4 cc 3d 3c d6 f1 3c
       0.024450911 -0.023055647 0.10004603 0.0295211
0000d0 ed 1f 6a bc 47 e2 76 3d 5d f9 9b 3a 67 58 cd 3c
       -0.014289838 0.06027439 0.0011899878 0.025066568
0000e0 d8 38 17 3c cd 7f 44 3d b0 3a 49 bd 45 b7 97 3d
       0.009229861 0.047973443 -0.049128234 0.07408003
0000f0 73 4b 2e 3d 0b 35 65 3d 8f 2f 80 bd a8 3e ce bc
       0.042552423 0.05595879 -0.06259071 -0.025176361
000100 cf c3 ff bc c3 90 2c bd 95 19 3d bd e7 88 9c 3b
       -0.031221299 -0.042130243 -0.046166975 0.004777062
000110 68 6d 1b 3d 3b ab a4 bc f2 d1 7b bc f6 e8 10 bd
       0.037946135 -0.02010118 -0.015369879 -0.03537842
000120 19 3a 7a bd 27 bd fb bb df e2 6d bd 32 3b 8b bc
       -0.061090562 -0.007682461 -0.05807769 -0.016996
000130 3c 03 20 bd 19 e2 f0 bd 0a fa 69 bc ef a6 a4 bd
       -0.039065585 -0.11761875 -0.014280805 -0.080396526
000140 ea 60 3b bd b2 b0 a6 3a 29 18 5e bd a7 79 e6 bb
       -0.04574672 0.0012717454 -0.05422226 -0.007033545
000150 ba 17 11 bd f7 80 8c 3d dc e9 d3 3a a0 77 b9 bd
       -0.035423018 0.068605356 0.0016167718 -0.0905602
000160 35 bc 0c bd 33 9a 18 3b 80 a0 20 bd 07 ed a3 bc
       -0.034359176 0.002328527 -0.039215565 -0.020010484
000170 17 e7 9a bc c9 04 b4 bd df eb 2a bd b2 d3 6a 3c
       -0.01890902 -0.08789975 -0.04172885 0.014332699
000180 f6 aa 9c bd bf 95 43 3d 6b 8d c0 bb d4 d2 7e bc
       -0.07649796 0.04775023 -0.0058762333 -0.015553195
000190 52 89 40 bc bd 5f 75 3b e3 14 ba bc 14 84 4d ba
       -0.01175149 0.0037441098 -0.022715038 -0.00078398106
0001a0 d1 be 82 bb 58 40 a5 bd 46 b1 9d 3b a3 f0 20 bd
       -0.0039900322 -0.08068913 0.0048123924 -0.03929199
0001b0 b1 e4 6f bc c1 1b 95 3c 4c 19 6d 3c b8 8d 77 bc
       -0.014641927 0.01820171 0.014471363 -0.015109472
0001c0 df fb 08 bc 78 70 88 3c 13 65 d0 3c 75 66 52 3d
       -0.008360832 0.016655192 0.025438821 0.051367242
0001d0 65 58 67 bd 9d 5a 6e bd a4 28 16 bc c1 d0 6f 3c
       -0.056480784 -0.058191884 -0.009164963 0.014637173
0001e0 5a ee c7 bd c9 d7 f4 bc 0c a7 b7 37 75 5a 5a bd
       -0.09762259 -0.02988805 2.1893087e-05 -0.053308923
0001f0 7c 9b 47 bc 51 e6 40 3c e9 d2 d0 bc 4f 55 82 bd
       -0.012183066 0.011773662 -0.025491195 -0.063639276
000200 74 c5 2f bc 74 13 e3 3b cf f2 da bd 67 85 4f 3d
       -0.010728229 0.006929809 -0.10690843 0.05066433
000210 c2 7a b0 3d 36 07 86 3c 3f c2 d8 3c f9 3c dd bd
       0.08617164 0.01636086 0.026459811 -0.10802645
000220 d9 dd 7d bd c1 23 4b bd 06 ca 82 bd e6 d7 6e bc
       -0.06197915 -0.049594644 -0.06386189 -0.014577841
000230 87 60 1e bc f0 40 75 bd a5 59 b6 3c 92 f3 21 bb
       -0.009666569 -0.059876382 0.022259543 -0.002471183
000240 a8 d0 eb bc 08 f0 16 bc 25 72 4b b9 70 f9 2b bd
       -0.028786018 -0.009212501 -0.00019402111 -0.04198593
000250 2e 86 9a bc 30 87 2f bc 6f 4d a7 3c 93 05 62 3c
       -0.01886281 -0.010713384 0.020422665 0.013795274
000260 ad b4 89 3b 65 c8 91 bb 2a 2f a5 3a d0 d0 8e bd
       0.0042024464 -0.0044489377 0.0012602557 -0.069734216
000270 42 af b3 bd 5d 57 94 bc 6b c0 22 3d 3a 3f 2a bd
       -0.08773662 -0.018108064 0.039734285 -0.041564204
000280 8b 12 0d bd bf fa 43 ba 71 21 5e bd 76 41 6c bd
       -0.034441512 -0.0007476024 -0.05423111 -0.057679616
000290 a0 a8 26 3c 96 d8 fa bd 36 f2 92 bd 18 75 c9 bd
       0.010172039 -0.12248342 -0.07175104 -0.09836787
0002a0 5d a3 79 ba 5f a7 68 bd 97 1c f9 bb cc 25 0d 3d
       -0.0009522939 -0.056800243 -0.007602285 0.034459874
0002b0 48 d0 41 bd f1 e1 2a bd 26 7e 8b bc 60 bb a6 bc
       -0.047317773 -0.04171938 -0.017027926 -0.02035302
0002c0 ad 09 9c bd e5 c2 f9 3c a7 db 64 3c a6 8f 60 3d
       -0.07619033 0.03048844 0.013968385 0.054824494
0002d0 6d e2 82 bc c9 67 2e 3c 4e 62 a3 3c 3a e7 98 3d
       -0.015977109 0.0106448615 0.019944336 0.07465978
0002e0 65 c0 d4 bd 44 29 7d 3b a8 ea 8d bd 7d fe a8 ba
       -0.10388259 0.0038629333 -0.06929523 -0.0012893226
0002f0 06 1a 81 bd a6 e0 62 3c 40 7e fd 3b 21 c3 5e bd
       -0.06303792 0.013847506 0.0077359974 -0.05438531
000300 73 d1 ea 3c fd 94 bc bd f2 98 70 bd 0d 70 28 3d
       0.028664326 -0.09208105 -0.05873961 0.041122485
000310 c6 26 b8 3d 0e 22 7b 3d 27 ea 52 3d f9 d8 c5 bc
       0.089917704 0.061311774 0.051492836 -0.024151312
000320 90 e5 22 3d f7 a9 87 bc 22 02 3b bc 7d 46 74 3b
       0.03976971 -0.016560538 -0.011414083 0.003727346
000330 95 69 ad 3c 1a cb 65 3d 5b fd 9c bc e0 a7 c0 bd
       0.02116851 0.056101896 -0.019163778 -0.094070196
000340 08 b9 37 bd 76 5d 34 3d 46 0f f5 bc 9c bd 4b 3d
       -0.044854194 0.044034444 -0.02991451 0.049741372
000350 f5 d3 7c 3d 4b 1a 89 3c f7 df 9a 3d d9 d8 ad 3c
       0.061725575 0.01673617 0.07562249 0.021221565
000360 6a a3 32 bc 47 07 0d bd 7b 75 16 bd 02 29 df bc
       -0.010903219 -0.03443077 -0.03673313 -0.027241234
000370 52 a6 08 bc f0 b1 6c bc d9 8b 88 bd fc 2b 12 bd
       -0.008340435 -0.0144467205 -0.06667299 -0.035686478
000380 c7 19 88 bd 13 d1 df bc 5a b6 1f bd eb de c7 bd
       -0.06645542 -0.027321374 -0.038992263 -0.09759315
000390 ec bc 0b 3d a1 7d d0 bc ed 99 17 3d c8 e2 0b 3c
       0.034115717 -0.02545053 0.03701203 0.008537956
0003a0 59 4e 3e bd 72 38 ac bd c8 98 7d bd 02 7a a6 bd
       -0.046461437 -0.084092036 -0.06191328 -0.0812874
0003b0 99 34 83 3d f3 16 9e bd 56 76 8d 3d 32 8d 57 3c
       0.064065166 -0.07719221 0.069073364 0.013156222
0003c0 94 bc 04 3d ca f0 98 bc 7d 8d cc 3b 59 7f b8 3c
       0.032406405 -0.018669505 0.0062424527 0.022521662
0003d0 de 85 35 3d e0 a0 51 bb 1d b2 38 3c 78 51 32 bc
       0.04431712 -0.0031986758 0.011272934 -0.0108836815
0003e0 91 7c a0 3c 3d fe 65 bd 90 06 23 3d 02 7c bd bb
       0.019590648 -0.056150664 0.03980118 -0.005782605
0003f0 37 22 44 3c f6 17 07 bd fb be 66 bc 03 c7 6c bd
       0.011971048 -0.032981835 -0.014083619 -0.05780698

arith.constant6 f4 [64, 3, 3, 32]
000000 a7 09 8a bd 00 5d e3 3b 08 cc 8a 3c fa 3f 66 bd
       -0.06740122 0.0069385767 0.016942993 -0.056213357
000010 77 f5 90 bd de 55 eb bd 2a c9 09 bc 7f 38 20 be
       -0.07078069 -0.11490987 -0.008409778 -0.15646552
000020 27 11 c6 bc 32 a2 da bc f2 3a 98 3c a2 9d ad bd
       -0.0241781 -0.026688669 0.018582795 -0.08477332
000030 de 22 4e bc 26 f3 d8 3d 27 33 d4 bc bf 6f 02 3d
       -0.012581555 0.10593252 -0.025903298 0.03184485
000040 de ee c2 3c c5 2c b3 bd 7f 6a c2 bd 4b 4c c0 bd
       0.023795541 -0.087487735 -0.09492969 -0.09389552
000050 0f 81 b1 bd 96 07 e1 3d 58 b5 6f 3b 84 5d b7 bd
       -0.08667194 0.10987775 0.0036576595 -0.089533836
000060 f5 81 ff bc bf 5d 59 bd 08 fa 02 3c fb b4 2f bd
       -0.031189898 -0.05306792 0.007994182 -0.042897206
000070 dd e1 51 bd 9d 2c 22 3d 41 c1 97 b9 21 37 5e 3b
       -0.05124079 0.039593328 -0.0002894495 0.003390737
000080 57 5b cb 3c 8c f2 3a 3d 59 47 85 bd 18 57 ee 3c
       0.024823828 0.045641467 -0.06507749 0.029094264
000090 b5 ac 9f bd 0c 10 ac bc f6 b4 01 bc 3c ef b5 bd
       -0.07796613 -0.021003745 -0.00791668 -0.08883521
0000a0 35 b3 a2 bd bf c0 a3 3d 41 12 98 bc 34 a1 11 bd
       -0.07944337 0.07995748 -0.018563392 -0.035554126
0000b0 a9 68 28 be 08 f9 9a 3d ba fb ab bd 75 1b a5 bc
       -0.16446175 0.0756703 -0.083976224 -0.020154694
0000c0 0b f9 9e bd 4f a9 5f bd c1 65 b7 bd b1 a6 d4 bd
       -0.07762345 -0.054604825 -0.08954955 -0.10383356
0000d0 5a e7 6a bd b4 76 75 bd 70 68 aa bd ea e7 41 bd
       -0.05734954 -0.059927657 -0.08320701 -0.04734031
0000e0 16 50 f6 3c 0c a2 e4 bc 31 9e 3c bc 4d 1e ea 3b
       0.030067485 -0.027909301 -0.011512325 0.0071447254
0000f0 d1 d2 84 bc 23 f7 90 bd c2 64 36 be a7 ac 05 3c
       -0.016213806 -0.070783876 -0.17811874 0.008158839
000100 a4 fe 1c bd 63 d1 1f 3d 86 8e 02 bc 98 cf ee bd
       -0.03832878 0.039018046 -0.007968551 -0.11660689
000110 9b 72 0a 3d f3 ac 71 bd 37 b9 97 bd 60 6a fb bd
       0.033800703 -0.059002828 -0.07408374 -0.12276149
000120 68 6f 50 39 ee 9c 9b bc 3a f0 3c bb 3c 6e 2e bd
       0.00019877928 -0.018995728 -0.002882971 -0.042585596
000130 dd eb f8 bd ad 38 a2 bb d9 1b db bb de 72 0f 3d
       -0.12154362 -0.004950604 -0.0066866693 0.035021655
000140 24 00 00 bd 4b 0d 72 bd 59 7a 3e bd aa 61 17 bd
       -0.031250134 -0.05909471 -0.0465034 -0.036958374
000150 a2 a0 93 bd b9 a7 55 3d 84 96 ec bc a6 92 44 bd
       -0.07208373 0.052161906 -0.028880365 -0.047991417
000160 fa 36 37 3d d5 05 02 be b3 db 9a bc 59 7f 98 bd
       0.044730164 -0.12697537 -0.018903589 -0.07446165
000170 36 9d bd bc a0 8d 40 bc db b2 9a bd aa 97 2c bd
       -0.023146253 -0.011752516 -0.07553645 -0.042136826
000180 e0 99 c6 bd 5d c8 bc bd e9 f7 41 bd 68 ae c3 3d
       -0.09697318 -0.09217904 -0.047355566 0.0955475
000190 c2 3a 2a bd d0 c7 b4 bd cc 54 77 bd f6 b9 ee bc
       -0.041559942 -0.08827174 -0.060383603 -0.029141407
0001a0 40 06 d9 bd 50 8d 9b bd 73 cd c6 bc a3 46 84 3d
       -0.10596895 -0.075953126 -0.024267888 0.064587854
0001b0 fb de 61 bd 9f cd 54 bd 5d c5 91 bd 6c 45 25 3a
       -0.05514429 -0.051953908 -0.07117722 0.0006304595
0001c0 f5 99 c1 3d 29 fb 59 bd e9 46 fd bc 22 b3 a4 3d
       0.09453193 -0.05321804 -0.030917602 0.08041979
0001d0 e2 3d 07 be bd 75 9a 3d 10 fe 79 3d 29 4c 0d 3d
       -0.132072 0.07541988 0.06103331 0.03449646
0001e0 d5 df 76 bb 73 4f be 3d e4 d4 39 3d 12 02 70 3d
       -0.0037670035 0.092924975 0.045369044 0.058595724
0001f0 78 0e b2 bc 13 d4 5a bd 85 e2 1b 3d 86 57 2d 3d
       -0.021735415 -0.053424906 0.038057823 0.042319797
000200 f3 53 84 3c 16 20 bf bc 54 27 73 3c 71 42 56 bd
       0.016153311 -0.02333073 0.0148409195 -0.052309457
000210 76 b6 1e 3c 46 c0 e0 bc 46 24 58 3d 3b 65 6b ba
       0.009687057 -0.027435433 0.052768968 -0.0008979623
000220 b7 fb 79 bc cd e3 5f 3d 46 fb a9 bd b5 ff cc bc
       -0.015257767 0.054660607 -0.0829988 -0.025024274
000230 dc 34 39 be ad 8d 93 bc 43 50 97 bd 46 b4 95 bd
       -0.1808657 -0.018011892 -0.073883556 -0.07309775
000240 9c cf f8 3c 3d 93 43 bd 4f 2e 18 be 4f 10 fe bc
       0.030372433 -0.04774784 -0.14861415 -0.031013636
000250 4b 86 66 be 7f e2 8d bd 61 05 8b 3c 71 10 08 3d
       -0.22512166 -0.06927966 0.016970338 0.033218805
000260 ff 85 41 bd 39 dc 6f bd 50 4f cb 3d 80 0c 6d bd
       -0.04724693 -0.05855963 0.09927237 -0.05787325
000270 cb 22 1b 3d da 29 06 bd 4e f4 80 3d 1b 2b be 3d
       0.037874978 -0.032754757 0.062965974 0.092855655
000280 43 0e 30 3c f1 95 26 3c b5 69 68 3c ba 7e 42 3d
       0.010745588 0.010167585 0.014185359 0.047484137
000290 0b 0b 9f bc 14 cb 00 be 93 1c b9 bc bf b7 8c bb
       -0.019414445 -0.12577468 -0.022596633 -0.004294365
0002a0 b8 86 3f bd 90 59 4c 3d 07 0a 5d bd d5 3b 46 3d
       -0.046759337 0.0498901 -0.05396464 0.048396904
0002b0 e0 d1 1c be a9 bf 24 3d c8 2e db bc 07 10 64 bd
       -0.15314436 0.040221844 -0.026755705 -0.055679347
0002c0 1c ed 5f 3c e6 5e 67 bd 4c b1 bf bb 9f 13 b1 bc
       0.013667371 -0.056486987 -0.005849993 -0.021615801
0002d0 60 8d a7 be b3 03 ea bb c2 18 82 bd c2 20 4b bb
       -0.32725048 -0.0071415543 -0.063523784 -0.0030994867
0002e0 fc 2d 0d bd 88 35 91 3d 09 2b 29 bd 6a f5 84 3c
       -0.034467682 0.070902884 -0.041300807 0.016230304
0002f0 bb 6b 16 3d 08 fc d7 3c d6 db 23 bc 4a bc 5c bd
       0.036723834 0.026365295 -0.010001143 -0.053890504
000300 a9 83 ce bb bd 61 99 3c 7b ea ba 3c cb 72 87 bd
       -0.006302316 0.018723363 0.022816887 -0.06613692
000310 03 16 1a 3d 1b ce a5 bc c6 28 55 bd b5 14 f9 bc
       0.03761865 -0.02023988 -0.052040838 -0.030405382
000320 fd 19 86 bd f2 09 23 bd 61 4b 1f bd b7 ac d7 bc
       -0.065479256 -0.039804406 -0.038890246 -0.026327474
000330 9c 42 ff 3d c1 da 40 bc d6 eb 76 3d f3 f2 5d bd
       0.124638766 -0.011770905 0.060283504 -0.054186773
000340 4f a1 1a 3d 86 11 89 3d 39 84 5e 3d a6 45 b8 bc
       0.037751492 0.066927955 0.054325316 -0.022494148
000350 56 de 17 3d f3 1a 54 bc b0 24 65 3c 4b 17 cc 3d
       0.03707727 -0.012945878 0.013985798 0.0996538
000360 fc b3 25 bc 26 9b 5c 3d e5 50 c2 3c 1b 8d ae bc
       -0.010113712 0.0538589 0.023720214 -0.021307519
000370 92 43 90 bd 7f 04 eb bd 1f c0 8b 3b 04 26 9c 3d
       -0.07044138 -0.11475467 0.004264846 0.076244384
000380 b4 4f 17 3d af 99 53 bc 91 6e 61 bd 98 b6 4c bd
       0.036941245 -0.012915059 -0.055037085 -0.049978822
000390 bf bc 73 bd 9e b0 3b 3d 65 bc 25 bd 96 39 f4 bc
       -0.059506174 0.045822732 -0.04046287 -0.029812615
0003a0 9e f6 8c bd bc af 11 3c ff 64 65 bd 66 c1 21 bd
       -0.06882976 0.008891996 -0.05600452 -0.03949108
0003b0 31 5b 1e 3d 85 ad 0d 3d 08 0b d1 3d cc 71 6d 3c
       0.038661186 0.03458931 0.10207182 0.014492463
0003c0 aa 65 35 bd 2a 2d 94 3c 9a e5 ab bc f2 26 e9 bd
       -0.044286408 0.018087942 -0.020983506 -0.11384381
0003d0 73 89 16 bd 28 f5 55 3d e2 d1 6d bd 03 45 c8 3d
       -0.036752176 0.052235752 -0.058061488 0.09778788
0003e0 03 79 25 bb ed 23 81 3d 10 f3 b9 bd 37 43 19 3d
       -0.002524913 0.063056804 -0.090795636 0.037417617
0003f0 fa 25 5e 3d 26 a5 8f bc 60 18 de 3a ce 85 83 3d
       0.054235436 -0.017534804 0.001694452 0.064220056

arith.constant7 f4 [32, 3, 3, 1]
000000 73 a1 80 bd 50 2a 9f 3d 1f 6b fc bc 9a 02 43 bd
       -0.06280794 0.07771742 -0.030812798 -0.047609903
000010 86 9d 28 3e 30 12 88 bd 90 c8 12 be 4b 33 17 bd
       0.1646634 -0.06644094 -0.14334321 -0.03691415
000020 99 79 6a 3d 53 33 48 bd 0c cc df bd 8a d2 06 3e
       0.05724487 -0.04887707 -0.10927591 0.13166252
000030 96 d6 1e 3b b5 7a ba 3c 43 ed 76 3d 8f 7f cf bb
       0.002423679 0.02276359 0.060284864 -0.006332345
000040 74 c2 0d 3c c9 84 6e bc fc 28 99 bc 30 29 88 3d
       0.008652318 -0.014558026 -0.0186963 0.06648481
000050 a7 a9 28 bd 80 69 d0 3d 4b be 2c 3e 72 3c 43 3e
       -0.041177418 0.101763725 0.16869466 0.19066027
000060 f8 25 08 bd 88 10 b2 bd d8 5d bf 3b 38 8e 82 3d
       -0.033239335 -0.08694559 0.0058400445 0.06374782
000070 a4 29 99 3d 0a 76 fa bd e7 cd 03 be 47 bd d1 3d
       0.074786454 -0.122295454 -0.12871514 0.1024118
000080 82 22 71 3c b2 07 d9 bd af a5 e5 3d 29 db 61 bb
       0.0147177 -0.10597171 0.11213242 -0.0034462905
000090 0d 99 78 3c 36 b2 ae bd 13 f3 1b 3d 51 f6 b8 3d
       0.015173209 -0.08530085 0.03807361 0.09031356
0000a0 05 3f 57 bd 85 42 bf 3d 28 5b 33 bd 0a 3a de bd
       -0.052550334 0.093388595 -0.043788105 -0.10850914
0000b0 fa d0 a0 3d d0 4a d5 3d 3f 97 ac 3d ba 55 6d bd
       0.07852359 0.1041466 0.084272854 -0.057943083
0000c0 3c 06 c5 bd 96 03 a4 bd a7 9f 76 bc a4 05 85 3c
       -0.0962033 -0.080084965 -0.0150527125 0.016238041
0000d0 4c cc ce 3d f0 f8 38 bd 18 bc 9c 3d 3c 8e c6 bd
       0.1009756 -0.04515928 0.076530635 -0.09695098
0000e0 30 ee ca bd 96 61 86 3d 14 0a 85 3d 5c bc c8 b6
       -0.09908712 0.06561582 0.06496063 -5.9823924e-06
0000f0 9b 9a 4f bd cd 99 90 3d c3 0e a5 bd 58 bb 09 be
       -0.050684553 0.07060585 -0.08059456 -0.13450372
000100 2d 01 9d bd 46 10 56 3c fa 1f b8 bd 89 07 87 3d
       -0.0766624 0.013065403 -0.08990474 0.06593234
000110 8b a0 1e 3c 66 31 ae 3d 63 83 03 ba f9 39 e9 3d
       0.009681831 0.08505516 -0.00050168316 0.113880105
000120 ca 6f 6a bd 48 6f 8f bd 87 8e c4 3d 9c d4 65 bd
       -0.057235517 -0.07003647 0.095974974 -0.056110963
000130 03 6e c1 3c e1 71 c7 bd 8b 07 b1 b9 6f a7 14 3e
       0.023612028 -0.097385176 -0.0003376569 0.14516996
000140 58 4e f3 bb bf 84 c0 bb da 9a 62 bc 8c 8c 2b 3e
       -0.007425111 -0.0058751996 -0.013830865 0.16752833
000150 cf 68 2d be c0 80 7c 3c 76 e9 97 bd 85 f9 3a 3d
       -0.16934513 0.015411556 -0.07417576 0.045648117
000160 34 01 77 3d de 84 a6 bd 43 10 c0 bd f5 a8 88 3c
       0.06030388 -0.08130811 -0.09378102 0.016682127
000170 e6 5c da 3c 1e 5c 37 bd 91 a4 f4 3d 63 89 51 3d
       0.026655626 -0.044765584 0.11945451 0.051156413
000180 80 1c f4 3d ce a6 ac bd a2 d3 d5 bd 7c 85 9b bd
       0.119194984 -0.08430253 -0.104407564 -0.075938195
000190 47 7c 7f bd a5 da 2a 3d 9f b4 b3 bd 95 47 4b bd
       -0.06237438 0.041712422 -0.08774685 -0.049628813
0001a0 c9 9f 22 3c 70 28 ef 3d 30 81 17 3e b8 54 a3 bd
       0.009925791 0.11677635 0.14795375 -0.07975143
0001b0 65 4a 74 3d d8 6c 7f bd 98 7b 66 3c 56 9e 16 be
       0.05964126 -0.06235966 0.014067553 -0.14708838
0001c0 be 87 ad 3d 02 80 18 be ca 86 c5 3d a6 2f b8 3d
       0.084731564 -0.14892581 0.096448496 0.08993463
0001d0 9c 19 ed 3b 23 d6 e4 3d dd 2f 81 3c 7c dc 9c bd
       0.007235719 0.11173656 0.015769893 -0.076592416
0001e0 63 74 9f bd f6 9c f1 bd 1d ca 19 3e ff 48 69 bd
       -0.07785871 -0.11797516 0.15018506 -0.05695438
0001f0 13 37 da 3c 83 9a 63 bd ac ef 00 3e 43 65 01 3e
       0.02663759 -0.055567276 0.12591428 0.12636285
000200 77 b4 92 3d 2f 58 d6 bc 35 78 c4 3c e7 7b 70 bb
       0.07163327 -0.026165096 0.0239831 -0.0036694945
000210 8c 03 e4 3c 4c 18 c2 bd 26 12 17 be 8d 1d ee bd
       0.027833723 -0.094772905 -0.14753017 -0.1162673
000220 f9 c1 e4 3c e5 3c a2 bc b4 3f 4e 3c 79 bd bd 3d
       0.027924525 -0.019804427 0.01258843 0.09264655
000230 25 40 d1 bd 36 cf 33 bd b9 b2 2d 3b c4 25 9c 3d
       -0.10217313 -0.043898784 0.0026504232 0.07624391
000240 70 79 16 bc 21 23 bb 3d f7 9f 70 3d 95 4d 63 3d
       -0.009184226 0.0913756 0.058746304 0.05549391
000250 fa 44 55 3d 7b 31 0e 3e a7 e5 02 be 82 d7 01 be
       0.052067734 0.13886063 -0.12782918 -0.12679866
000260 3b 96 9a bd 68 3f 65 3c b3 7b 64 3d 7a 7d cc bd
       -0.075481854 0.013992168 0.05578203 -0.0998487
000270 d3 af 27 3c 11 63 1c bd dc f8 3b bd 34 24 21 3d
       0.010234791 -0.038180415 -0.045891628 0.039341167
000280 ea b7 71 3d de 05 4b 3d c3 1a a8 3d 4d 00 a4 3d
       0.059013285 0.049566142 0.082082294 0.0800787
000290 ed 74 96 bd a2 f8 a2 bd 9c 70 c1 bd a6 3b 91 3d
       -0.073465206 -0.07957579 -0.09445307 0.07091455
0002a0 d2 46 eb bc 72 4f 91 3c 0e 8f 11 3d a4 81 fe bd
       -0.028720293 0.017738078 0.03553682 -0.12427071
0002b0 cf e7 e1 3c 0f 43 f5 bd 1c 60 a0 3d 47 62 a9 bc
       0.027576355 -0.11975681 0.078308314 -0.020676745
0002c0 f9 e2 13 3e ab 38 de 3d 4a 1f 84 3c af 90 92 bd
       0.14442052 0.10850652 0.016128201 -0.071565025
0002d0 95 c7 d2 3d c3 41 2a 3e b7 d8 52 3d 42 86 a6 bd
       0.102919735 0.16626649 0.051476207 -0.081310764
0002e0 36 dd ce bd 49 a7 28 bd e9 0b a5 bd 6e 56 05 3e
       -0.101007864 -0.04117516 -0.08058912 0.13021252
0002f0 af eb d5 bd ce d1 69 bc 7b b5 0e be 49 22 a4 3d
       -0.10445344 -0.014271213 -0.13936417 0.08014352
000300 49 4b 52 bd 30 55 84 bd 30 32 2f bd 12 88 5a 3d
       -0.05134133 -0.06461561 -0.042772472 0.053352423
000310 86 0e 0b 3d b1 ee c8 3c 3d e0 51 bd e6 5d 16 be
       0.033949398 0.02452788 -0.05123924 -0.14684257
000320 2c c7 08 bc 7b 69 96 3d 59 7d db bd 3f 0a 1d 3d
       -0.0083482675 0.073443376 -0.107172675 0.03833985
000330 56 23 b8 3d ee bc 7f 3c c8 9b ac bc 47 df 92 bd
       0.08991115 0.015609009 -0.021070376 -0.07171493
000340 1a df 75 bc 2f e3 87 3d 17 4b 42 3c f0 a7 a4 bc
       -0.015006805 0.06635129 0.011858723 -0.02009961
000350 cb b9 53 3d b7 1f 2c bd ad a1 e7 bd bc 60 02 3e
       0.051690858 -0.042022433 -0.11310134 0.12732214
000360 12 f5 26 3d 9b ae 85 3d 91 1c bd 3c e8 98 66 bd
       0.04076106 0.06527444 0.02308491 -0.056298167
000370 f6 15 a3 bd ac 35 0c 3d a5 5f a7 3d 3d b5 c7 bd
       -0.07963173 0.034230873 0.081725396 -0.09751365
000380 68 f6 00 3e b5 51 27 3e 6a 67 c1 bd 97 2c f8 bd
       0.12593997 0.16339763 -0.09443553 -0.1211788
000390 e1 72 19 3e 46 e4 9e bd 36 4e c2 bd 5b ad 1a 3e
       0.14985229 -0.077583835 -0.09487574 0.15105192
0003a0 b3 22 56 bc c1 43 96 bd 15 26 4c 3d 28 a1 de bd
       -0.013069796 -0.07337142 0.049841005 -0.10870582
0003b0 68 7d 64 bd a1 e2 f1 bd 1c 15 c9 3b 8a f4 0d bd
       -0.05578366 -0.11810804 0.0061365496 -0.03465704
0003c0 0e 95 f9 bc 39 2d d8 3d 3e e6 04 3e 88 9f 59 3d
       -0.030466583 0.105555005 0.12978455 0.053130656
0003d0 c7 64 d1 3d 69 95 28 3c 24 09 a3 bd 46 07 f6 3d
       0.102243 0.010289528 -0.07960728 0.12013106
0003e0 61 05 7f bc 28 be 09 bd ed df 8d bd d5 b1 c5 bd
       -0.015565247 -0.033628613 -0.06927476 -0.096530594
0003f0 1b 86 c0 bd 66 1e f3 3d 9b 04 5b bc 06 a7 e7 3d
       -0.094005786 0.118710324 -0.013367797 0.11311154

arith.constant8 f4 [1, 64]
000000 c5 e5 28 3e 17 e8 2a be 99 11 b9 be 78 94 b5 3e
       0.164939 -0.16690098 -0.36146238 0.35464835
000010 d8 b6 be 3e 76 99 c6 be 26 71 85 3e 88 4e b4 be
       0.37248874 -0.38788956 0.26062888 -0.35216165
000020 c6 28 bd be ee 08 bb be 2d f2 71 be 06 40 be 3e
       -0.3694517 -0.3653025 -0.23627539 0.3715822
000030 81 db ca be 10 02 96 3e 0f 73 a9 be 1d f8 b2 3e
       -0.39620593 0.2929845 -0.33095595 0.3495492
000040 88 01 9e 3e 90 5e 61 be 75 9c 8c 3e 34 66 88 be
       0.30860543 -0.22008729 0.27463117 -0.26640475
000050 c9 0d 45 3e a7 34 9e 3e ff 43 ad be 4b 59 ac be
       0.1924354 0.30899546 -0.3384094 -0.33661875
000060 3f d2 58 be 16 41 af be 8d e3 85 3e e8 49 66 be
       -0.21173953 -0.34229344 0.2615017 -0.2248913
000070 a8 00 b7 be 8d 9e ac be 6a 5b 9d be b3 91 c2 3e
       -0.35742688 -0.33714715 -0.30733806 0.38001785
000080 30 4d a8 3e 49 f6 a2 be 5f 18 76 3e 9f fb 7b be
       0.3287139 -0.31828526 0.24032734 -0.24607705
000090 30 b7 8b be e6 2e a8 be a8 40 8c be 3b fc 6b 3e
       -0.27288198 -0.3284828 -0.2739308 0.23045437
0000a0 e6 4b 6d be 05 c5 5a 3e 7f 0a b2 3e 73 6e cb 3e
       -0.23173484 0.2136422 0.34773633 0.39732704
0000b0 a7 f6 1d 3e 2c 1f 79 be 08 d9 98 be 2c 1c 57 be
       0.15426122 -0.24328297 -0.29853082 -0.2100684
0000c0 96 02 6f be cc 2f 95 be ee f7 06 3e cd 9e 09 be
       -0.2334083 -0.2913803 0.13180515 -0.13439484
0000d0 2e 9c 73 3e fc 6a 93 be da 9d 44 3e 32 2d af 3e
       0.23790047 -0.2879256 0.1920084 0.3421417
0000e0 36 93 a0 3e 2e e7 7d be 76 70 11 3e da 7e 2f be
       0.31362313 -0.2479522 0.14203057 -0.17138234
0000f0 47 eb 38 be 9a 80 57 3e c8 fc b1 be e4 c3 9e be
       -0.18058501 0.21045151 -0.3476317 -0.31008828

arith.constant9 f4 [64, 128]
000000 92 1b 3c 3d ec 08 ed 3d 23 06 e9 bc ed a6 29 be
       0.04592473 0.11573967 -0.028445309 -0.16567583
000010 9a 9c 48 bd 97 74 f6 bd a8 a2 36 bc 36 bc 95 3d
       -0.048977472 -0.120339565 -0.011147179 0.07311289
000020 01 da aa bd 70 b7 3f be ac 04 a5 3d f4 17 4c be
       -0.08342362 -0.1872232 0.08057532 -0.19931012
000030 d2 20 cb bd 57 be 02 bd ea f1 b5 3c cf f0 36 3e
       -0.09918369 -0.031919803 0.02221008 0.17865299
000040 5a f7 60 be 0f 13 5d 3e 0f e1 92 3d bb 51 2e be
       -0.21969357 0.21589302 0.07171833 -0.17023365
000050 0c 88 8f 3e 04 bf af 3c 54 1a 52 be cd 8b 7b be
       0.28033483 0.021453388 -0.20517856 -0.24565049
000060 8e 15 5d 3e 01 ff 1d be 4f 87 4c be 8c c8 1f be
       0.21590254 -0.15429308 -0.19973491 -0.15603846
000070 b6 53 af bd 6f a8 55 be 95 1e 87 3e 97 97 29 3d
       -0.085608885 -0.20865034 0.2639052 0.041404333
000080 0f 48 3d be 51 ef 00 be 2a 50 18 3e ad 01 5e 3e
       -0.1848452 -0.12591292 0.1487433 0.21680327
000090 89 c3 42 3e fc 4b 09 3d cf 42 b3 3d fb a9 e8 bc
       0.19019903 0.03351973 0.08752977 -0.028401366
0000a0 25 fc de 3d a3 f4 6b 3e 5b 95 56 bd 0d 7e a7 bd
       0.108879365 0.2304254 -0.05238853 -0.08178339
0000b0 f4 9d 16 be f7 b2 55 3e ab 16 99 3d 11 f3 a9 bb
       -0.14708692 0.20869051 0.07475027 -0.0051864465
0000c0 d7 97 26 3e 57 42 f6 3c 9a aa 3c 3d 42 c8 46 be
       0.1626886 0.03006093 0.046061136 -0.1941233
0000d0 2f db 84 be d6 ed 28 3d 24 23 e5 3d c6 ea a3 bd
       -0.25948474 0.041242443 0.11188343 -0.08003764
0000e0 8c 1e fc 3d 31 73 ef 3d c0 e3 5c 3e 70 0e 56 bc
       0.12310514 0.11691893 0.21571255 -0.013064966
0000f0 80 5e 69 bd aa e7 cc bd 5d 2d b7 3c 64 3f 4d bb
       -0.056974888 -0.10005124 0.022360498 -0.0031318301
000100 3b ec f1 3c ef 4b 96 3c e7 80 14 bd 6c 7f 5c 3d
       0.029531589 0.018346755 -0.036255743 0.053832456
000110 39 af 0b be 69 45 c3 3d d2 51 7e 39 a2 18 44 be
       -0.13641061 0.09534723 0.00024253808 -0.19150022
000120 22 43 d6 bd a3 49 db 3c ec 65 84 3d e1 b0 17 be
       -0.10462023 0.026768511 0.064647526 -0.14813568
000130 2e 79 4b bd 95 b4 e9 3d 31 95 0e 3e 83 79 6d 3d
       -0.049676113 0.114113964 0.139241 0.05797721
000140 73 0d 30 bd ef 30 a5 3d b3 6c 90 3d 62 93 8e 3e
       -0.042981576 0.08065974 0.07051983 0.2784682
000150 2e 23 a7 3d c4 78 48 3e a8 86 52 be fb c7 bc bd
       0.08161007 0.19577318 -0.2055918 -0.09217831
000160 d9 f1 00 be 8b 1e 75 3d c9 fa 3a 3e 18 74 d3 3d
       -0.12592258 0.05984358 0.1825973 0.103248775
000170 31 75 be bd e4 7d 15 3e 61 63 59 3e 25 75 09 be
       -0.09299696 0.14598805 0.21229316 -0.13423593
000180 72 d2 5c bc e1 1d b7 3d f2 bb 98 3e 76 f6 10 3d
       -0.013477908 0.08941246 0.2983089 0.035391293
000190 6e dd 9b 3e 18 65 18 bd 95 31 0e be 1b 15 1f 3d
       0.30442375 -0.037205786 -0.13886102 0.038838487
0001a0 a4 92 3c 3d f2 e7 d4 3d 2c f8 d9 bd c0 94 69 3d
       0.046038285 0.103958026 -0.10643038 0.057026625
0001b0 d0 e1 bc bd aa 0b 8b 3d 30 c4 0c 3e 51 99 80 be
       -0.09222758 0.06789334 0.13746715 -0.2511697
0001c0 e8 92 63 3e 21 de a2 3d c4 14 dd bd 10 a2 ff 3d
       0.22224009 0.07952524 -0.10794976 0.12482083
0001d0 82 94 e7 bd 79 5a eb 3d 4c c1 80 be 5d 0b a5 bd
       -0.113076225 0.11491866 -0.25147474 -0.08058808
0001e0 be 12 5b bb 9c ac d9 bd 8e 43 46 3e 33 cb 36 bd
       -0.003342792 -0.10628626 0.19361708 -0.04462738
0001f0 0f d1 d4 bd b1 04 65 bc 90 85 59 3e 72 56 1f be
       -0.10391437 -0.013978169 0.21242356 -0.1556032
000200 02 93 c1 bc 58 b5 82 3c 83 87 88 3b 19 d8 95 3d
       -0.02362967 0.015955612 0.004166545 0.07316608
000210 62 f9 c9 3c 5f 39 0c 3e 78 4d 2a be 01 11 2b 3e
       0.024655048 0.1369376 -0.16631114 0.16705705
000220 01 c5 59 3e f7 78 22 be a4 3a 9f bd 1c 63 5f bd
       0.21266557 -0.15866457 -0.07774857 -0.054537877
000230 d0 12 20 3e 6c 43 01 bd 6e 7a 2a 3e ca fc ed bd
       0.15632176 -0.03155844 0.16648266 -0.11620481
000240 c0 ce 99 bd 53 be ed bd b5 2f 15 3e 83 5e 7a bc
       -0.075101376 -0.11608567 0.1456898 -0.015281322
000250 77 28 80 bd 32 f3 ec 3c 61 c7 f3 3d ae f3 51 3e
       -0.06257718 0.028924558 0.11903263 0.20503113
000260 60 4d 94 bd 9b 2d 18 3e 03 c1 3f 3e 02 ec 6e 3e
       -0.072413206 0.14861147 0.18725972 0.23332217
000270 c0 1c 9e 3c 9a 45 cf bc 60 c7 27 be a8 f5 8b bd
       0.019300818 -0.025301743 -0.1638465 -0.068339646
000280 31 d8 4b 3d 34 b1 53 3e fc f2 c1 bd fe 6d 47 be
       0.049766723 0.20673066 -0.09470174 -0.19475552
000290 a4 b1 ce bd 82 63 f5 bd 22 c6 d0 bd b5 b4 89 bd
       -0.10092476 -0.1198187 -0.10194041 -0.0672392
0002a0 3b 32 2d 3d a1 d8 d0 bd 43 a1 ba bd 46 a0 ab 3d
       0.04228423 -0.10197569 -0.091127895 0.08380179
0002b0 2b 11 f6 bc 4e 1f 09 bd e0 70 90 be 6f 53 9d 3d
       -0.030037483 -0.03347712 -0.28211117 0.07681929
0002c0 83 16 8c bc 01 2e 41 3e 3d 96 b3 bd fd 07 43 3e
       -0.017100578 0.18865205 -0.0876889 0.19046016
0002d0 e9 b5 e7 3d 20 35 50 3e 29 1f 4e 3e 46 98 a1 3e
       0.113139935 0.20332766 0.20129074 0.31561488
0002e0 f9 3a 51 3d f9 32 0d 3d a8 03 6e be 0f 0f f0 bd
       0.05108163 0.03447244 -0.23243582 -0.11721622
0002f0 52 13 28 bd 19 da b2 bb 5e 2c f9 3d 73 84 3c 3e
       -0.04103405 -0.005458128 0.121666655 0.184099
000300 eb 27 a7 be 22 f0 85 3d 5a 86 40 3e d1 36 6f be
       -0.32647642 0.06539942 0.18801251 -0.23360755
000310 2c 8e ca 3d 0d 21 aa 3c c0 a9 cc bc e4 4e 2a bd
       0.098903984 0.020767713 -0.024983287 -0.041579142
000320 54 90 3e be 52 fe 75 3d c8 c7 40 3e f9 08 fb bd
       -0.18609744 0.060056992 0.1882621 -0.12257571
000330 99 ba 0e 3d ec 9a e2 bc 6e c9 85 bd 6a 71 0b 3e
       0.034845922 -0.027661763 -0.0653256 0.13617483
000340 1b a1 e4 3d 85 32 30 bd 6d e9 15 be 92 6a 62 be
       0.11163541 -0.04301693 -0.14639826 -0.22110966
000350 55 2b 5e 3e 4a 3b 1f 3e 00 44 70 3e c7 bc e1 bb
       0.21696217 0.1554996 0.2346344 -0.006888959
000360 5a 57 af 3d a6 28 35 3e 34 68 60 bd 09 45 39 3e
       0.08561583 0.17691287 -0.054786876 0.18092741
000370 a0 23 e6 bb cc 6e 8d bd 52 11 3b 3d f9 18 96 bd
       -0.00702329 -0.069058985 0.045670815 -0.07328982
000380 76 7b d7 3d 4c 12 5a be 2f d8 8d be 70 de f8 3c
       0.10521595 -0.21296042 -0.27703997 0.030379504
000390 7d 08 b2 bd a1 13 84 3e 24 9a 19 be f0 a4 4a be
       -0.08693025 0.25796226 -0.15000206 -0.19789481
0003a0 93 19 5f 3d 10 23 f0 bc d3 8f 49 3e fd 0b df bc
       0.05446775 -0.029313594 0.19683771 -0.027227396
0003b0 0c 34 0f be 7f 71 45 3d 2b f8 8f be 8c df 0a 3e
       -0.13984698 0.04820394 -0.28119025 0.13561839
0003c0 4d c3 27 be 2a 94 d3 bd f1 79 0d be 73 06 f8 bc
       -0.16383095 -0.103309944 -0.13816048 -0.030276513
0003d0 c6 ff 56 3e 12 6d bf bd d3 3f ea 3d 96 63 50 3e
       0.20996007 -0.093469754 0.11437955 0.20350489
0003e0 f7 36 36 3d 9c 14 66 bd 63 87 f4 bd 39 1b 81 bd
       0.044486012 -0.056172 -0.119398855 -0.063040204
0003f0 3b de 14 3e 4b b4 c7 bc 8a ed 4f bd 5a 0c 2c 3e
       0.14537899 -0.024377963 -0.050763644 0.16801587

arith.constant10 f4 [128]
000000 82 94 85 be 54 47 96 be 59 52 0f be 95 0c 48 be
       -0.26089865 -0.29351294 -0.13996257 -0.1953605
000010 86 f4 af be 81 bd 88 be 50 45 99 be aa 41 4b bf
       -0.34366244 -0.2670708 -0.29935694 -0.7939707
000020 1a c0 11 be 35 ff 5a bf f7 44 fb be 3d 8d 49 be
       -0.14233437 -0.85545665 -0.49076054 -0.19682784
000030 95 37 1e be 50 52 cc bd 76 aa 87 be 7d 23 d7 be
       -0.1545089 -0.09976637 -0.2649724 -0.42019263
000040 eb 23 01 be 8b d5 0e be d3 14 88 be 2e aa 4b bf
       -0.12611358 -0.13948648 -0.26578388 -0.7955655
000050 88 37 52 be 86 22 82 be 95 0b 9d be f8 39 a7 bd
       -0.20528996 -0.25416964 -0.306729 -0.081653535
000060 f2 62 cc bd 8d 69 5c bf ed 44 6e bf 86 5d 00 be
       -0.0997981 -0.8609856 -0.9307392 -0.12535676
000070 1b 2e e6 bd 08 ae 60 bf b2 dd 4a be e9 bc d7 be
       -0.11239263 -0.8776555 -0.19811133 -0.42136315
000080 28 ab 97 be a2 f5 72 bf 1e 58 13 be 00 34 22 be
       -0.2962277 -0.94906056 -0.14389083 -0.15840149
000090 ea 8a 84 be 51 6f 74 bd e6 e2 b8 bd c2 d4 cb be
       -0.25887233 -0.059676472 -0.090276524 -0.3981076
0000a0 98 0c 17 bf cc 85 07 be f5 88 43 be e6 b5 a6 be
       -0.5900359 -0.13234633 -0.19095214 -0.32560652
0000b0 33 6c 2d bf 04 99 f6 be e0 d2 39 be b0 48 9d be
       -0.67743224 -0.48163617 -0.18146849 -0.3071952
0000c0 45 6e ec bd 4d 2d 03 bf 4a 33 f7 be 63 26 dd be
       -0.1154447 -0.51241 -0.48281318 -0.4319335
0000d0 09 13 ad bd eb d2 80 bf d6 f0 2a bf 9d 01 a5 bd
       -0.08450896 -1.0064367 -0.66773736 -0.08056948
0000e0 58 02 2c bf 1e a8 e5 be 44 47 b5 be ba 3f a1 be
       -0.67191076 -0.44854826 -0.35405934 -0.31493932
0000f0 4f 4f 33 be dd 6c 27 be ab 90 46 bf d2 01 8c bf
       -0.17510723 -0.16350122 -0.77564496 -1.0938056
000100 59 ff 2f be 9e 18 66 be fe 70 00 bf e2 7f ac be
       -0.17187251 -0.22470328 -0.5017241 -0.33691317
000110 01 b0 65 bf 95 ef 56 bf ad e0 23 be 84 e3 40 bf
       -0.89721686 -0.83959323 -0.16003676 -0.7534716
000120 ce ec b9 be 04 b9 14 be 61 a1 41 bf 1e 5b 99 be
       -0.3631348 -0.14523703 -0.7563687 -0.2995233
000130 68 f3 28 bf cf d6 49 be 71 be 60 be 2c e8 fa bd
       -0.6599641 -0.19710849 -0.21947648 -0.122513145
000140 3b 6c 17 be 77 ed a5 be 84 78 7a bf 39 74 03 be
       -0.1478738 -0.32407734 -0.9784014 -0.12837304
000150 05 eb 25 bf 44 7c e4 be df f7 85 be 8f 87 37 bf
       -0.64811736 -0.44626057 -0.26165673 -0.7169122
000160 da de 27 bf 30 8b 32 be 80 f9 b6 be 3e 28 db bd
       -0.6557442 -0.17435908 -0.35737228 -0.10701035
000170 cd 1b 78 bf bf 49 e6 be f4 3b 4e be d3 d5 da be
       -0.9691742 -0.4497814 -0.20140058 -0.4274126
000180 6c 7b 54 bf d5 cc 00 bd b0 72 a9 bd 50 94 0f bf
       -0.83000827 -0.031445343 -0.08273828 -0.5608568
000190 50 bc 1d be 5f fb 87 bf c2 08 a6 be 17 75 47 bf
       -0.15403867 -1.0623587 -0.32428557 -0.7791304
0001a0 d4 73 c9 bd 8c c8 cc be 8d 68 00 be 56 25 83 bf
       -0.098365456 -0.39996755 -0.12539883 -1.0245769
0001b0 cd 4a 2a bf 47 b4 de be 6c 04 d6 bd f8 94 d6 bd
       -0.66520387 -0.43496916 -0.10450062 -0.10477632
0001c0 89 f0 06 be de d8 60 be 4d e3 20 bf 6e 25 ca bd
       -0.13177694 -0.21957728 -0.62846833 -0.098704204
0001d0 56 74 1b be 3d 6c 96 be 0a 0c c0 bd 9a 4d 8d be
       -0.15181097 -0.29379454 -0.09377296 -0.27598268
0001e0 a2 67 90 be 6d 91 03 be 6c 9c a8 bd 72 c8 1f be
       -0.28204066 -0.12848444 -0.0823296 -0.15603808
0001f0 06 67 c2 be ff ae 6a bf 9a 0a 54 be 57 ad 7d be
       -0.37969226 -0.9167327 -0.20707169 -0.24773155

arith.constant11 f4 [128]
000000 e9 ed e3 3f e6 35 a0 3f 48 84 3b 40 ae 72 58 40
       1.780698 1.2516448 2.9299488 3.3819995
000010 d8 34 ca 3f 2b de ad 3f 1f 77 b7 3f 95 1e 5b 3f
       1.5797377 1.3583425 1.4333228 0.8559354
000020 65 5d 58 40 1c 9f fe 3e 1e ee 2f 3f 1d d8 1a 40
       3.3807003 0.49730766 0.68722713 2.4194405
000030 82 c9 47 40 87 4b 89 40 9b bd 94 3f 5a 59 84 3f
       3.121674 4.2904696 1.1620363 1.0339768
000040 7d e0 70 40 8e e7 59 40 2e 98 4a 3f 54 ad a0 3e
       3.7637017 3.404758 0.7913846 0.3138224
000050 24 60 c9 3f 40 f0 93 3f da cf e9 3f 8d 31 8a 40
       1.5732465 1.1557693 1.8266556 4.3185487
000060 4e 84 6a 40 f6 e1 1a 3f a9 11 16 3f ad f7 35 40
       3.6643252 0.6050104 0.586207 2.843242
000070 1e 31 94 40 b4 dd f9 3e b7 d8 4f 40 c4 9c 79 3f
       4.6309958 0.4880196 3.2476022 0.9750483
000080 16 bb b0 3f 7a 4d c5 3e 06 16 67 40 8b 60 04 40
       1.3807094 0.38535672 3.6107192 2.0683925
000090 be 7c a3 3f 08 c1 20 41 8c f3 a3 40 6f 9f 8f 3f
       1.2772443 10.047127 5.12348 1.122053
0000a0 df 30 c9 3f 1d 19 9f 40 74 a5 3d 40 73 c2 37 3f
       1.5718039 4.9718156 2.9632235 0.7178108
0000b0 20 85 ef 3e 5c 52 35 3f 97 51 c4 3f 6d 92 be 3f
       0.46781254 0.70828795 1.5337399 1.4888436
0000c0 0f 75 8c 40 44 a2 01 3f 8e b7 38 3f 80 96 2e 3f
       4.3892894 0.5063822 0.7215508 0.68198395
0000d0 e3 2c 93 40 15 57 0d 3f 50 ca 2b 3f 53 0e bb 40
       4.5992293 0.55211 0.6710558 5.8454986
0000e0 b2 be 98 3f 11 33 36 3f 8c cf a4 3f 1f 8c 31 3f
       1.1933196 0.7117167 1.2875838 0.6935443
0000f0 89 35 a7 40 8f ea 38 40 cc 61 13 3f d5 29 e0 3e
       5.225285 2.8893163 0.575711 0.43781915
000100 31 8a 06 40 22 aa fc 3f 8b 67 58 3f 8e 85 ce 3f
       2.1021845 1.973942 0.84532994 1.6134508
000110 f2 9a be 3e 18 41 2f 3f 62 db 35 40 0b 51 31 3f
       0.3722759 0.684587 2.841515 0.69264287
000120 a9 40 b0 3f ea ce 9a 40 a4 4b 43 3f 7c ab b8 3f
       1.3769733 4.837758 0.76287293 1.4427333
000130 65 fa 06 3f c2 fe fb 3f d6 7a 2b 40 2b 85 48 40
       0.5272582 1.9687121 2.6793723 3.133128
000140 b7 86 06 40 a1 66 e1 3f 03 24 36 3f b3 11 44 40
       2.1019723 1.7609445 0.711487 3.0635803
000150 32 bc 90 3f 5d 22 88 3f 0d a4 03 40 c1 eb 84 3f
       1.1307433 1.0635487 2.0568879 1.0384446
000160 e3 6a 15 3f a2 bd 9b 40 cb 4d 87 3f 8f ab cf 40
       0.5836622 4.8668985 1.0570616 6.489692
000170 2a ac bd 3e f7 32 24 3f b0 53 2e 40 f2 ea 35 40
       0.37045413 0.64140266 2.7238579 2.842465
000180 00 cc 55 3f cf e1 9c 41 cd 7b 93 40 87 92 0f 3f
       0.83514404 19.610258 4.6088624 0.5608296
000190 26 3f 0b 40 f0 87 18 3f 21 33 ef 3f b8 9d 15 3f
       2.1757293 0.59582424 1.8687478 0.58443785
0001a0 84 84 b0 40 be 4d 9e 3f d6 c7 6f 40 c4 6a cc 3e
       5.516176 1.2367475 3.746572 0.39925206
0001b0 01 9c b6 3e e5 8a 5a 3f 02 e1 a6 40 29 71 80 40
       0.35665897 0.85368186 5.214967 4.0138135
0001c0 99 8f ae 40 62 d2 e7 3f 68 4f 00 3f 3f 50 28 40
       5.455029 1.8111079 0.50121164 2.6298978
0001d0 9f 3e 5a 40 13 0b 02 40 74 71 81 40 f4 88 0a 40
       3.410072 2.031926 4.0450993 2.164609
0001e0 47 c9 ac 3f fb a2 d6 40 2a 8c 81 40 c7 c2 4e 40
       1.3498925 6.707395 4.04836 3.2306383
0001f0 8d 1f ca 3f 35 b4 13 3f ef 8f 00 40 ee da d3 3f
       1.5790879 0.5769685 2.008785 1.6551187

arith.constant12 f4 [32]
000000 5b 2e 28 bf c4 39 5b be b9 9a 2d bf 68 4c 74 bd
       -0.6569573 -0.21408755 -0.67814213 -0.05964318
000010 e3 6d 16 be 40 8a 2d be ea 14 e7 be 05 06 0a bf
       -0.14690356 -0.1694727 -0.45133144 -0.53915435
000020 31 93 80 bd 0c 26 35 be 5a 8f 5b bd d0 e3 df be
       -0.062780745 -0.17690295 -0.053603508 -0.43728495
000030 14 55 86 bd 0e 1a 20 bf c1 4a e1 be 76 d9 94 be
       -0.06559196 -0.62539756 -0.44002345 -0.2907216
000040 97 0b d7 be 43 ee f5 be 57 77 ad bd be f5 c7 be
       -0.4200103 -0.48033342 -0.08470028 -0.39054674
000050 e7 17 80 be 28 b6 0e bf d4 a8 b6 be 9c 2e 21 be
       -0.25018236 -0.557467 -0.3567568 -0.15740436
000060 5b 39 4a bf 18 66 22 be a5 1b 22 bf a3 50 63 bf
       -0.7899377 -0.15859258 -0.6332343 -0.88794917
000070 d4 2c c7 be 88 c2 e0 be 76 b1 22 be 02 36 89 be
       -0.3890139 -0.43898416 -0.15888008 -0.26799017

arith.constant13 f4 [32]
000000 de 5b 9a 41 81 e7 e7 41 71 22 80 40 f6 7b d2 41
       19.294857 28.988039 4.0042043 26.310528
000010 af f0 ec 41 f1 f0 bf 41 d2 17 85 41 0c c9 9c 41
       29.617521 23.992647 16.636631 19.598167
000020 aa 1e f3 41 23 8a e4 41 a9 a3 e9 41 22 9f c9 41
       30.389973 28.56745 29.204912 25.202702
000030 d8 1e d2 41 5c 27 9e 41 33 61 77 41 49 e3 bd 41
       26.26506 19.769218 15.46123 23.73598
000040 01 06 9c 41 a8 32 a0 41 0a 19 f5 41 b7 04 a5 41
       19.502932 20.024734 30.637226 20.627302
000050 47 08 d0 41 46 31 b4 41 eb 39 bc 41 64 ee cf 41
       26.004042 22.52406 23.52828 25.991402
000060 ca 1b f8 40 08 dc 34 41 44 94 a6 41 d9 ce b2 41
       7.753392 11.303719 20.822395 22.351
000070 c1 44 a7 41 da 55 b6 41 65 12 b0 41 3a 29 ab 41
       20.908571 22.79192 22.008982 21.39513

arith.constant14 f4 [64]
000000 76 12 37 bf 72 2c bb be 52 5e 2c bf a5 73 0a bf
       -0.71512544 -0.36557347 -0.6733142 -0.5408271
000010 93 7c 49 bf 61 73 ed be 10 0a b4 be 87 17 db be
       -0.7870571 -0.4637709 -0.35163927 -0.42791387
000020 7a 25 d3 be d5 81 03 bf 69 2b 0e bf 3c 40 d8 be
       -0.4123953 -0.5136998 -0.5553499 -0.42236507
000030 6a 21 16 bf 4b f6 e8 be 1c 4d e1 be d8 0e 02 bf
       -0.58644736 -0.45500407 -0.44004142 -0.508039
000040 06 74 ac be 16 da 39 bf cc df cf be 79 23 02 bf
       -0.3368227 -0.725984 -0.4060043 -0.50835377
000050 a2 a6 0e bf 45 02 c1 be e3 21 a8 be 6e cb f4 be
       -0.5572301 -0.37697044 -0.32838354 -0.47811455
000060 d7 90 ff be 41 f3 07 bf b2 62 2d bf 14 29 c9 be
       -0.49915192 -0.5310555 -0.6772872 -0.39289153
000070 0a 8d 04 bf ed ac 08 bf 1a 4d 26 bf dc 94 01 bf
       -0.5177771 -0.53388864 -0.649614 -0.50617766
000080 17 a5 ea be 72 ed c7 be da 57 8b be 2e b1 d8 be
       -0.4582908 -0.39048344 -0.27215463 -0.42322677
000090 f0 cb 14 bf 2e 30 0c bf db 3b a0 be 86 04 de be
       -0.58123684 -0.54761016 -0.31295666 -0.43362826
0000a0 ae 4a f3 be de 07 05 bf 3f dd 02 bf 60 fb 50 bf
       -0.47517914 -0.5196513 -0.51118845 -0.8163357
0000b0 bb 3b 00 bf 14 a9 43 bf 77 9a 04 bf f4 49 ba be
       -0.5009114 -0.7642987 -0.51798195 -0.36384547
0000c0 9c bd a6 be be 69 99 be 5d ea 29 bf 7a a1 92 be
       -0.32566535 -0.29963487 -0.66373235 -0.28638822
0000d0 fb 71 f1 be ac 6d 0b bf d3 af ac be ab e7 18 bf
       -0.47157273 -0.5446422 -0.33727893 -0.597285
0000e0 79 07 bb be 12 b6 8a be 85 54 a0 be e4 67 06 bf
       -0.3652914 -0.27092034 -0.31314483 -0.52502275
0000f0 70 a6 e7 be 2d e7 45 bf 94 28 d0 be dc 54 bf be
       -0.4524417 -0.7730587 -0.4065596 -0.3736943

arith.constant15 f4 [64]
000000 75 92 57 40 17 aa a8 3f 48 15 e8 3f 4b 58 92 3f
       3.368314 1.3176907 1.8131495 1.1433195
000010 e2 0f 99 3f ab 88 6e 3f 64 e5 0b 40 f1 5d e3 3f
       1.1957972 0.9317729 2.185876 1.7763044
000020 df 8c 3c 40 73 3c 8f 3f b9 fc 6c 3f 8f f9 bc 3f
       2.946098 1.1190323 0.92573124 1.4763659
000030 83 4b 71 3f 4c 6d 85 3f 61 f4 a1 3f b1 6b 3a 40
       0.94255847 1.042398 1.2652704 2.912823
000040 fc 76 a3 40 27 61 17 40 dc a7 f1 3f a4 6e 0f 40
       5.1082745 2.3653047 1.8879352 2.241128
000050 3c 72 58 3f 01 b4 20 40 61 a7 3d 40 27 09 97 3f
       0.8454931 2.5109866 2.963341 1.1799668
000060 4c 7b 66 40 57 1f 27 3f f1 b4 39 40 15 e0 f8 3f
       3.6012754 0.65282196 2.9016688 1.9443384
000070 07 05 87 3f 7e 83 81 3f 31 7d 0f 40 88 ca 0a 40
       1.0548409 1.0118253 2.242016 2.1686115
000080 d0 66 85 3f 8e eb 1c 40 9b 89 21 40 ae e7 1f 40
       1.0422001 2.451877 2.5240238 2.4985156
000090 d9 de 84 3f 60 e4 70 3f 27 eb 0b 40 12 f6 9a 3f
       1.0380508 0.9409847 2.1862276 1.2106345
0000a0 91 0e c9 3f 47 61 b6 3f 53 e9 5c 40 a5 d1 82 3f
       1.570757 1.4248437 3.451741 1.0220228
0000b0 27 3b 67 3f f4 81 14 40 82 ee c8 3f 62 00 bf 3f
       0.90324634 2.3204317 1.5697787 1.4921992
0000c0 00 01 a6 3f 0f 1e 5f 40 aa 73 91 3f 3b 8a 3c 40
       1.2969055 3.4862096 1.1363423 2.945937
0000d0 cd 0e 22 3f a8 fe f9 3f 38 c3 b8 3f f8 ed 9c 3f
       0.63303834 1.953084 1.4434576 1.2260122
0000e0 ad 62 c1 3f 30 92 97 40 ad af 9f 3f 17 75 09 40
       1.5108238 4.736595 1.2475487 2.1477716
0000f0 9d 65 9d 3f 01 1e bc 3f 6f c5 94 3f c2 d9 d4 3f
       1.2296635 1.4696656 1.1622752 1.6628954
